…
Data(eta_angle_1=[245066], norm_x_1=[245066], norm_y_1=[245066], x=[245066], region=[245066], hit_id=[245066], y=[2392], cluster_x_2=[245066], norm_x_2=[245066], r=[245066], module_id=[245066], phi_angle_1=[245066], norm_y_2=[245066], phi_angle_2=[245066], cluster_z_1=[245066], norm_z_2=[245066], eta_angle_2=[245066], eta=[245066], cluster_y_1=[245066], cluster_z_2=[245066], cluster_y_2=[245066], cluster_x_1=[245066], phi=[245066], norm_z_1=[245066], z=[245066], track_edges=[2, 842], pdgId=[842], radius=[842], nhits=[842], particle_id=[842], pt=[842], primary=[842], config=[1], event_id='000000101', edge_index=[2, 2392], truth_map=[842], weights=[2392]) 

InteractionGNN(
  (aggregation): MultiAggregation([
    SumAggregation(),
    MeanAggregation(),
    MaxAggregation(),
    StdAggregation(),
  ], mode=cat)
  (node_encoder): Sequential(
    (0): Linear(in_features=3, out_features=128, bias=True)
    (1): LayerNorm((128,), eps=1e-05, elementwise_affine=False)
    (2): SiLU()
    (3): Linear(in_features=128, out_features=128, bias=True)
    (4): LayerNorm((128,), eps=1e-05, elementwise_affine=False)
    (5): Tanh()
  )
  (edge_encoder): Sequential(
    (0): Linear(in_features=256, out_features=128, bias=True)
    (1): LayerNorm((128,), eps=1e-05, elementwise_affine=False)
    (2): SiLU()
    (3): Linear(in_features=128, out_features=128, bias=True)
    (4): LayerNorm((128,), eps=1e-05, elementwise_affine=False)
    (5): Tanh()
  )
  (edge_network): Sequential(
    (0): Linear(in_features=384, out_features=128, bias=True)
    (1): LayerNorm((128,), eps=1e-05, elementwise_affine=False)
    (2): SiLU()
    (3): Linear(in_features=128, out_features=4, bias=True)
    (4): <Quantum Torch Layer: func=qnode>
    (5): Linear(in_features=4, out_features=128, bias=True)
    (6): LayerNorm((128,), eps=1e-05, elementwise_affine=False)
    (7): Tanh()
  )
  (node_network): Sequential(
    (0): Linear(in_features=1152, out_features=128, bias=True)
    (1): LayerNorm((128,), eps=1e-05, elementwise_affine=False)
    (2): SiLU()
    (3): Linear(in_features=128, out_features=4, bias=True)
    (4): <Quantum Torch Layer: func=qnode>
    (5): Linear(in_features=4, out_features=128, bias=True)
    (6): LayerNorm((128,), eps=1e-05, elementwise_affine=False)
    (7): Tanh()
  )
  (output_edge_classifier): Sequential(
    (0): Linear(in_features=384, out_features=128, bias=True)
    (1): LayerNorm((128,), eps=1e-05, elementwise_affine=False)
    (2): SiLU()
    (3): Linear(in_features=128, out_features=128, bias=True)
    (4): LayerNorm((128,), eps=1e-05, elementwise_affine=False)
    (5): SiLU()
    (6): Linear(in_features=128, out_features=1, bias=True)
  )
) 

epoch 0, graph 1, loss 0.9598536491394043, forward time 8.306082725524902, back time 21.870222330093384, 